raw/deep_learning/siamese_module.pth (torch, 7639 bytes, 6 tensors)

weight f4 [25, 4]
0	0x3dab28e7	0.08357411
1	0xbd9e4061	-0.07727123
2	0x3eadc94e	0.33942646
3	0x3f0800f1	0.53126436
4	0xbe9ba648	-0.304003
5	0xbdd57490	-0.10422623
6	0xbe3ba21c	-0.18323559
7	0x3e0136b4	0.12618524
8	0x3de899ee	0.11357485
9	0x3e06192b	0.13095538
10	0xbe06ef78	-0.13177288
11	0xbddc7002	-0.10763551
12	0x3eeb8d23	0.46006116
13	0xbeb1ca66	-0.3472473
14	0xbeaba55c	-0.33524597
15	0xbe1b1b87	-0.1514722
16	0xbec97b62	-0.39351946
17	0x3c576dc0	0.013148725
18	0x3ed6d36e	0.41958183
19	0xbda63e28	-0.08117324
20	0x3e316886	0.17325029
21	0x3efa9f67	0.4894974
22	0x3e92135c	0.28530395
23	0x3ec46980	0.3836174
24	0x3ecf2d49	0.40464237
25	0xbd3e9a7d	-0.04653405
26	0xbe75afa5	-0.23992784
27	0xbe29f25c	-0.16596359
28	0x3f007afa	0.5018765
29	0xbe83a81d	-0.25714198
30	0x3d80f4f7	0.06296723
31	0x3efd868b	0.4951671
32	0xbd9d32cf	-0.076757066
33	0x3efb8127	0.49121973
34	0x3e9f1dab	0.31077322
35	0xbd6c7737	-0.05773088
36	0x3e668a04	0.22513586
37	0xbed10770	-0.40825987
38	0xbd7598f0	-0.059960306
39	0xbe730da8	-0.23735678
40	0x3ef1808b	0.47168383
41	0x3f0213c5	0.50811416
42	0x3e1b3df5	0.15160353
43	0xbd88e13e	-0.066835865
44	0x3cb89cef	0.02253577
45	0xbeb07ce4	-0.34470284
46	0x3e9cc155	0.3061625
47	0x3f038f5b	0.5139062
48	0x3d0113f0	0.031513155
49	0xbec4c34c	-0.3843025
50	0xbe1e12b0	-0.15436816
51	0xbefe2b2e	-0.49642318
52	0x3e20e651	0.15712859
53	0x3da31014	0.07962051
54	0xbebcf88f	-0.36908385
55	0x3eb4ea0e	0.3533482
56	0x3f01b630	0.5066862
57	0xbec12913	-0.3772665
58	0xbd182dce	-0.037153058
59	0x3e20c3cc	0.1569969
60	0x3f06ba5d	0.5262812
61	0xbdce3a6c	-0.10069737
62	0xbed0c547	-0.4077551
63	0x3d7ddcec	0.061978266
64	0xbeb9774e	-0.36223835
65	0x3e0e6c38	0.1390847
66	0xbeb42a40	-0.35188484
67	0xbea07f16	-0.3134696
68	0xbdd9d19d	-0.10635684
69	0x3d796d5a	0.0608953
70	0x3ed4c4c4	0.4155637
71	0x3ec23979	0.37934473
72	0xbe7d42a4	-0.24732453
73	0x3e792c9c	0.24333423
74	0xbe65b7ac	-0.22433347
75	0xbeeb957e	-0.4601249
76	0x3ef56898	0.4793136
77	0x3ec925d7	0.39286682
78	0x3ee67c11	0.4501653
79	0x3e28461a	0.16432992
80	0xbee37fec	-0.44433534
81	0xbe9d5d92	-0.3073545
82	0xbdff9458	-0.12479466
83	0x3dda4080	0.10656834
84	0xbd9bb7ba	-0.076034024
85	0x3eb51e12	0.35374504
86	0x3e5f81ad	0.21826811
87	0xbf049d53	-0.5180256
88	0x3ea84e91	0.3287244
89	0x3e8c6c6a	0.27426463
90	0xbec12ef5	-0.37731138
91	0xbe672105	-0.2257119
92	0x3e14d76f	0.14535306
93	0xbecf82e2	-0.40529543
94	0x3e4c2c70	0.19938827
95	0x3e2f2360	0.17103338
96	0x3e883e5d	0.2661008
97	0xbedc964e	-0.43083423
98	0x3e0e03d8	0.13868654
99	0xbef21d3b	-0.47287926

bias f4 [25]
0	0xbe4ae974	-0.19815618
1	0x3d8c0868	0.06837541
2	0xbe10e667	-0.14150392
3	0xbef46766	-0.47735137
4	0x3debdb18	0.11516398
5	0xbe137fcb	-0.14404218
6	0xbd541e4f	-0.051786717
7	0x3ee074e8	0.43839192
8	0x3ec74800	0.3892212
9	0x3d978f40	0.0740037
10	0xbe97047c	-0.2949561
11	0x3e39b0b0	0.18133807
12	0xbea0b950	-0.31391382
13	0xbe88495c	-0.2661847
14	0x3edffb83	0.43746576
15	0xbeb54dd2	-0.35410935
16	0xbec896d0	-0.3917756
17	0x3e46630d	0.19373722
18	0x3de2f158	0.11081189
19	0x3ea4879d	0.32134715
20	0x3cf989c0	0.030461192
21	0xbed0d0d6	-0.4078433
22	0xbe8f4746	-0.27984065
23	0x3d832c51	0.06404937
24	0xbdce795f	-0.100817434

weight f4 [30, 25]
0	0x3d8acc3d	0.067772366
1	0xbe477245	-0.19477184
2	0x3de8a4c4	0.113595515
3	0xbe3e0de8	-0.18559992
4	0x3e202445	0.15638836
5	0x3e80b71e	0.25139707
6	0x3cf5b821	0.029995026
7	0xbdb5f7c4	-0.08885148
8	0xbd8b54c5	-0.06803278
9	0xbd95118c	-0.072787374
10	0x3c9f93f2	0.019479726
11	0x3dddb618	0.10825747
12	0x3ddf7502	0.10910989
13	0xbcda9cb3	-0.026686048
14	0x3df2087b	0.11818024
15	0x3caa62ef	0.020799128
16	0xbd4f2648	-0.050573617
17	0x3e49c398	0.1970352
18	0x3cddb110	0.027061969
19	0x3c86494c	0.016392373
20	0xbd8596da	-0.06522913
21	0xbea8a084	-0.32934964
22	0xbe82250b	-0.25418887
23	0x3e60a730	0.21938777
24	0xbd917d1b	-0.0710394
25	0xbdd44d17	-0.10366266
26	0x3dff144e	0.12455045
27	0xbe4c93d0	-0.19978261
28	0xbd8a4b7c	-0.06752679
29	0x3d7bbc44	0.06145884
30	0xbe3113ea	-0.17292753
31	0x3cf78a40	0.03021729
32	0x3dd42782	0.10359098
33	0xbe001e6e	-0.12511608
34	0xbe0703e8	-0.13185084
35	0x3d5dca44	0.054147974
36	0x3d9b2d36	0.07576983
37	0xbde4bcf0	-0.111688495
38	0xbe19df06	-0.15026483
39	0xbbb9c6a0	-0.00566943
40	0xbe44887a	-0.19192687
41	0x3d91e6aa	0.07124074
42	0x3e246523	0.16054206
43	0xbdbf25b7	-0.093333654
44	0xbd518ba8	-0.051158577
45	0xbdcb04da	-0.09913035
46	0xbcafaf10	-0.021445781
47	0xbc8e20e8	-0.017349675
48	0x3e0f3187	0.13983737
49	0x3d599c74	0.05312772
50	0xbd273d8c	-0.04083018
51	0x3c6064b0	0.013695881
52	0x3e45a85d	0.19302507
53	0x3de3db0a	0.11125763
54	0xbe41ebca	-0.18937603
55	0x3db78b4a	0.08962114
56	0xbdc32913	-0.09529319
57	0xbd1072cc	-0.03526573
58	0x3d37e068	0.044891745
59	0xbe0781aa	-0.13233057
60	0xbe055e82	-0.13024333
61	0xbe33bc0a	-0.175522
62	0xbd6b5680	-0.05745554
63	0xbe1f4683	-0.15554242
64	0xbe268655	-0.16262181
65	0xbd49e1d8	-0.049287647
66	0xbd44ba80	-0.048029423
67	0xbe3a1d5a	-0.18175259
68	0x3cbeca50	0.02328983
69	0xbcfda498	-0.030962273
70	0xbd379d0c	-0.044827506
71	0xbdecd420	-0.11563897
72	0xbd92527a	-0.071446374
73	0x3d99dfba	0.075133756
74	0xbc8fb8e8	-0.017544225
75	0xbe20202a	-0.1563727
76	0xbde40afa	-0.11134906
77	0xbde80d7a	-0.113306955
78	0x3de90a36	0.11378901
79	0x3d70450c	0.0586596
80	0xbb490a86	-0.0030676438
81	0xbd7317dd	-0.05934893
82	0xbdd4b9bc	-0.103869885
83	0x3d9edc7b	0.07756897
84	0xbccc5a70	-0.024945468
85	0x3e01b61b	0.12667124
86	0xbe2dd90a	-0.16977325
87	0x3da5f63e	0.081036076
88	0xbe0da9ff	-0.1383438
89	0x3e071534	0.13191682
90	0x3ca70fb7	0.020393236
91	0xbd907efc	-0.0705547
92	0xbe52d083	-0.20587353
93	0x3d21a28c	0.039461657
94	0xbe2fbd83	-0.17162137
95	0x3e21bbd7	0.15794311
96	0x3d8e8243	0.06958439
97	0x3c098c33	0.0083952425
98	0xbd25a7ac	-0.040443107
99	0x3e4a6ecf	0.19768833
100	0x3de45515	0.111490406
101	0xbd8571dc	-0.065158576
102	0xbda14e67	-0.07876282
103	0xbd6da4ce	-0.058018498
104	0x3cc94f30	0.024573892
105	0x3e60ff10	0.21972299
106	0xbe6a3c09	-0.22874464
107	0x3e38bfda	0.18041936
108	0x3e3965c7	0.18105231
109	0x3dafe326	0.08588247
110	0x3db23e56	0.08703296
111	0x3df36a8d	0.11885557
112	0xbe14189e	-0.14462516
113	0xbe4f2d82	-0.20232204
114	0x3d97db27	0.07414847
115	0x3de127ea	0.10993941
116	0xbded1d27	-0.11577826
117	0x3d8155e1	0.06315208
118	0x3d89e81e	0.06733726
119	0xbcf37dbd	-0.029723043
120	0xbd85cb1a	-0.06532879
121	0xbea5c4ba	-0.32376653
122	0xbe548f03	-0.2075768
123	0x3e1e8572	0.15480593
124	0xbd59fa05	-0.053216953
125	0x3d2daa26	0.042398594
126	0x3e2681a3	0.1626039
127	0xbe310469	-0.17286839
128	0x3e2b4542	0.16725639
129	0xbc1274e0	-0.008938998
130	0x3e64c99b	0.22342531
131	0xbe4f8baf	-0.20268129
132	0xbe093276	-0.13398156
133	0xbdd1224f	-0.10211622
134	0x3e225321	0.15852024
135	0x3ddafb70	0.10692489
136	0xbd4e4da1	-0.050367
137	0xbd7bc72c	-0.061469242
138	0x3d5610ee	0.05226224
139	0xbda1e54e	-0.079050645
140	0xbd37b2fa	-0.04484842
141	0xbe4a19fa	-0.19736472
142	0x3dc7a621	0.097484834
143	0xbe1a2a23	-0.15055136
144	0x3ddb5c67	0.10710984
145	0xbe07acbe	-0.1324949
146	0xbe0925c6	-0.13393316
147	0xbe19b2d9	-0.15009631
148	0x3d1902b0	0.03735608
149	0xbd657a51	-0.056024853
150	0x3d69a7ac	0.05704467
151	0xbd34afb8	-0.04411289
152	0x3cc5a080	0.024124384
153	0xbe1b87b5	-0.15188487
154	0x3df0a45e	0.117501006
155	0xbd47c5c8	-0.048772603
156	0xbe0d8305	-0.13819511
157	0xbd98225a	-0.07428427
158	0xbe21cdfe	-0.15801236
159	0x3b66b940	0.0035205632
160	0xbdb76d1a	-0.08956356
161	0xbd58fcb4	-0.05297537
162	0x3cb94570	0.022616118
163	0xbe22c575	-0.15895636
164	0x3d5d0c04	0.053966537
165	0xbe3d3245	-0.18476208
166	0x3cb9dd68	0.022688583
167	0x3e03dc7b	0.12877075
168	0xbdda970d	-0.10673342
169	0x3d7df57c	0.06200169
170	0x3d92a332	0.07160033
171	0xbda6d90d	-0.08146868
172	0xbe22fbae	-0.1591632
173	0xbdc5a9c7	-0.09651523
174	0xbdb4232d	-0.08795772
175	0xbce6e04f	-0.02818313
176	0xbd676a2c	-0.056497738
177	0xbe429382	-0.19001582
178	0xbd9e5e3c	-0.077328175
179	0x3e2e2c63	0.1700912
180	0x3c3ec1c5	0.011642878
181	0x3d9a1842	0.07524158
182	0x3dee0b37	0.11623233
183	0x3e3254c5	0.1741515
184	0x3bdcf4a0	0.0067430288
185	0xbd0b104c	-0.03395109
186	0xbc709b2b	-0.014685432
187	0xbe4b8ef5	-0.19878753
188	0x3e348e29	0.17632355
189	0xbd8aa45d	-0.06769631
190	0xbe3fd8da	-0.18735066
191	0xbe205870	-0.15658736
192	0xbd013658	-0.031545967
193	0x3e336ad1	0.17521216
194	0xbd9aa2a2	-0.07550551
195	0x3d0b5be0	0.034023166
196	0x3e3ee6eb	0.18642776
197	0xbe481e11	-0.1954272
198	0xbe22f4c1	-0.15913679
199	0x3e3550be	0.17706582
200	0x3e39d8ed	0.18149157
201	0xbd1ffb94	-0.039058283
202	0xbe2eb827	-0.17062436
203	0xbdb80d10	-0.089868665
204	0xbd5dcc58	-0.054149956
205	0x3ddc5302	0.1075802
206	0xbd4d67c0	-0.05014777
207	0x3d904e4a	0.070461825
208	0x3bfdd700	0.0077465773
209	0x3c6f64b0	0.014611408
210	0x3d17b9d8	0.03704247
211	0xbdab8fe0	-0.08377051
212	0x3de0d292	0.10977663
213	0xbc24bb30	-0.010054395
214	0x3c0182a0	0.007904679
215	0xbe019fa0	-0.12658548
216	0x3df631e2	0.12021233
217	0xbdedb0ca	-0.116059855
218	0x3e089cc1	0.13341047
219	0xbe2aba06	-0.16672525
220	0x3cfe5340	0.031045556
221	0x3e17bf51	0.14819075
222	0x3be75d00	0.007060647
223	0xbd18f4e8	-0.037342936
224	0xbb835b00	-0.004008651
225	0xbe043039	-0.1290902
226	0x3da979c2	0.082751766
227	0x3e3724f8	0.17885196
228	0x3eeceaf9	0.4627302
229	0xbd97a096	-0.07403676
230	0xbe4e7105	-0.20160301
231	0x3e7471a6	0.23871478
232	0xbe66289c	-0.22476429
233	0x3dd4e2ac	0.10394797
234	0xbdd4dab7	-0.10393279
235	0x3dc40ebe	0.09573124
236	0xbcdccae8	-0.026952222
237	0xbe2f52fa	-0.17121497
238	0x3eaaba01	0.33345035
239	0xbe2ae349	-0.16688265
240	0x3e8bc464	0.27298272
241	0xbe160312	-0.14649609
242	0xbec4dacf	-0.38448188
243	0x3e2356d3	0.1595109
244	0x3d72784d	0.05919676
245	0xbe16fcfa	-0.1474494
246	0x3d8d063d	0.068859555
247	0x3e26848c	0.162615
248	0xbdd56d70	-0.10421264
249	0x3ea736a9	0.3265889
250	0xbd572660	-0.05252683
251	0x3daaad32	0.08333816
252	0xbe11a4b0	-0.1422298
253	0x3da73cde	0.08165906
254	0xbdb81a33	-0.08989372
255	0xbe3fa373	-0.18714695

bias f4 [30]
0	0xbe12bd88	-0.14330113
1	0xbe072218	-0.131966
2	0x3de89fea	0.11358626
3	0x3e21e377	0.15809427
4	0xbc4a0b50	-0.012331799
5	0x3df353a2	0.11881186
6	0x3d0ce0d4	0.0343941
7	0xbe4026ce	-0.18764803
8	0xbd0eff40	-0.034911394
9	0xbe12ff1a	-0.14355126
10	0xbd1116ac	-0.035422012
11	0x3df6df12	0.12054266
12	0x3e25fc2f	0.16209482
13	0x3e2111a8	0.15729392
14	0xbde9d76d	-0.11418042
15	0xbe37e172	-0.17957094
16	0xbc937d80	-0.018004179
17	0x3dd34a61	0.10316921
18	0x3da62bda	0.08113833
19	0x3dff9926	0.124803826
20	0xbe255352	-0.16145065
21	0xbd7ce7b8	-0.06174442
22	0xbdf6040d	-0.120124914
23	0xbca71140	-0.020393968
24	0x3e08d81b	0.13363688
25	0xbcb40680	-0.021975756
26	0x3cf79bd8	0.03022568
27	0x3e3bc0e5	0.18335302
28	0x3e258a95	0.16166146
29	0x3d89085e	0.06691049

weight f4 [8, 30]
0	0x3deff2f6	0.11716263
1	0x3d4dc2d8	0.050234646
2	0x3de14650	0.10999739
3	0x3e1843f1	0.14869668
4	0x3dc77a1e	0.09740089
5	0x3e6e1030	0.23248363
6	0xbdb6599e	-0.08903812
7	0xbc1ac64e	-0.009446694
8	0x3e06a598	0.13149107
9	0x3daa0620	0.083019495
10	0xbd953025	-0.072845735
11	0x3d546f84	0.051864162
12	0xbca64d68	-0.020300582
13	0xbd7ff0dc	-0.06248556
14	0x3e04f0e3	0.12982516
15	0xbe0576ee	-0.1303365
16	0x3e295491	0.16536166
17	0xbeb37bd6	-0.35055417
18	0xbe148ca4	-0.14506775
19	0xbe1415c1	-0.14461423
20	0x3cd280b4	0.025696136
21	0x3d86adb8	0.06576103
22	0xbdeff330	-0.11716306
23	0x3da41999	0.08012695
24	0x3dc9b16d	0.098482944
25	0xbd3b6d4c	-0.04575853
26	0x3ddecc3c	0.10878798
27	0x3db6ba04	0.089221984
28	0xbe84a6de	-0.2590856
29	0x3d8d4cfc	0.06899449
30	0x3e5b02fd	0.21387859
31	0xbe02a601	-0.12758638
32	0x3dd24bec	0.10268387
33	0xbd479d78	-0.04873416
34	0xbd89aafc	-0.06722066
35	0x3ca79660	0.020457447
36	0xbdb068c6	-0.08613734
37	0xbd32b697	-0.043631162
38	0x3e329636	0.17440113
39	0x3eae4b73	0.34041938
40	0x3d2c98a8	0.04213777
41	0xbdc01a52	-0.0938002
42	0xbe5b0aaf	-0.21390794
43	0xbe8641b2	-0.26221997
44	0x3e09248d	0.1339285
45	0x3da13587	0.07871538
46	0xbb52f619	-0.0032190143
47	0xbd8c0137	-0.06836169
48	0xbcb102e0	-0.021607816
49	0x3d2eeb33	0.042704772
50	0xbdc55a93	-0.09636416
51	0xbd285464	-0.041096106
52	0x3b9ec280	0.0048449636
53	0xbd3cdb5a	-0.046107627
54	0x3e62e725	0.22158487
55	0x3e1aa00a	0.15100113
56	0xbd2926bc	-0.041296706
57	0x3ded4ad0	0.11586535
58	0xbea56073	-0.32300147
59	0xbe2d0c1e	-0.16899154
60	0x3a2d6925	0.0006615094
61	0xbd1d7c9c	-0.038448915
62	0x3dd32fac	0.10311827
63	0x3d8bf0a9	0.06833012
64	0x3e363ba9	0.17796196
65	0x3d996595	0.07490078
66	0xbd9991ea	-0.07498534
67	0xbdcf6acd	-0.101277925
68	0xbc9b6d50	-0.018973023
69	0x3ea9438f	0.33059356
70	0xbdb0a2f2	-0.08624829
71	0xbca4e9a0	-0.020130932
72	0xbe668716	-0.22512469
73	0xbe529551	-0.20564772
74	0x3df49983	0.119433425
75	0xbdc9a7af	-0.09846436
76	0x3bdae2b9	0.0066798595
77	0xbea82fba	-0.32848912
78	0xbe2361dd	-0.159553
79	0xbe80fc71	-0.25192598
80	0xbdcfb6d0	-0.101422906
81	0x3df88378	0.12134451
82	0x3e1aa1da	0.15100804
83	0xbdcf459d	-0.101206996
84	0x3e5464e5	0.20741613
85	0xbdf32830	-0.118728995
86	0xbd245208	-0.040117294
87	0x3e261500	0.16218948
88	0xbea1bb02	-0.31587988
89	0x3d38ac3c	0.04508613
90	0xbe23ff9f	-0.1601548
91	0xbe06fa90	-0.1318152
92	0xbdbaeda1	-0.09127355
93	0x3c733ce5	0.014846061
94	0xbe037ce1	-0.12840606
95	0xbe5253cb	-0.20539777
96	0xbd9063e4	-0.070503026
97	0x3e144e02	0.14482883
98	0xbe22566a	-0.15853277
99	0xbe17d97b	-0.14829056
100	0x3dc27234	0.09494439
101	0x3e1b32e8	0.15156138
102	0x3e704868	0.23465121
103	0x3d545e7e	0.051847927
104	0x3dbd6a68	0.09248811
105	0xbdba545e	-0.09098123
106	0x3c1ae6f9	0.009454482
107	0x3de0c9f0	0.109760165
108	0x3e08f1ca	0.13373485
109	0x3e60c326	0.21949443
110	0x3cf658a9	0.030071573
111	0x3da20228	0.079105675
112	0xbd93ffd7	-0.07226532
113	0xbc264a1c	-0.010149505
114	0xbe40c182	-0.18823817
115	0xbe24b1b1	-0.16083409
116	0x3e308e1a	0.17241707
117	0x3dbbeb78	0.091757715
118	0x3cbaf9df	0.022824226
119	0xbdd9ec22	-0.10640742
120	0x3c7aa306	0.015297657
121	0x3d95aef4	0.0730876
122	0xbe02f5aa	-0.12789026
123	0x3d1240c5	0.0357063
124	0xbe5fb910	-0.2184794
125	0xbe450c39	-0.19242944
126	0xbdc33314	-0.09531227
127	0xbda73340	-0.08164072
128	0xbc4acb80	-0.01237762
129	0xbeb177f6	-0.34661835
130	0xbe074155	-0.13208516
131	0xbd39bcb0	-0.045345962
132	0x3e4a1efc	0.19738382
133	0x3d87a22d	0.066227295
134	0xbd0e1009	-0.03468326
135	0x3de2609e	0.110535845
136	0xbd6ea622	-0.058263905
137	0xbc21bd27	-0.009871758
138	0x3d8dff68	0.069334805
139	0x3e271640	0.16317081
140	0xbdf4386e	-0.119248256
141	0xbdc194e9	-0.094522305
142	0xbd7cce48	-0.061720163
143	0xbccfcceb	-0.025366267
144	0xbdbc122f	-0.09183156
145	0xbd8b5c80	-0.06804752
146	0x3bcc02a0	0.006225899
147	0x3e116fbc	0.1420278
148	0x3e4bd4e9	0.19905438
149	0xbd72b268	-0.059252173
150	0xbd979441	-0.07401324
151	0xbe01ef24	-0.12688881
152	0x3d8b0ab4	0.06789151
153	0x3def1572	0.11674012
154	0x3e6e9e14	0.2330249
155	0x3e09c9d6	0.134559
156	0xbe277454	-0.1635297
157	0xbd6b4e03	-0.057447445
158	0xbdc61517	-0.09671991
159	0x3dfb315c	0.12265274
160	0xbd59637c	-0.05307339
161	0xbe074302	-0.13209155
162	0xbe61d8e8	-0.220554
163	0xbdcef3d4	-0.101051
164	0xbdb96b83	-0.09053709
165	0x3d803b79	0.062613435
166	0x3e3247cb	0.174102
167	0xbe626a96	-0.22110972
168	0x3d32f270	0.043688238
169	0xbdda53a7	-0.10660487
170	0xbd40a3d6	-0.047031246
171	0x3e25c280	0.16187477
172	0x3cb1a258	0.021683857
173	0x3de67510	0.11252797
174	0x3e115d27	0.14195691
175	0x3e0e4714	0.13894302
176	0xbd949d47	-0.07256561
177	0xbdc8f5cf	-0.09812509
178	0xbdcbce3a	-0.09951444
179	0x3d9933e0	0.074805975
180	0xbe14483a	-0.14480677
181	0x3df507e4	0.11964396
182	0xbc757240	-0.014980853
183	0xbdd2b300	-0.10288048
184	0xbd99a848	-0.075028
185	0xbe0f55af	-0.1399753
186	0xbe16486d	-0.14676066
187	0xbd8d1adc	-0.06889889
188	0xbcce9500	-0.025217533
189	0xbecf9966	-0.4054672
190	0x3d515c18	0.051113218
191	0x3d962e54	0.07333055
192	0x3e569fed	0.20959444
193	0x3df94305	0.12170986
194	0xbe0517bd	-0.12997337
195	0xbe225741	-0.15853597
196	0x3ddc5e2c	0.10760149
197	0x3e36c29b	0.17847674
198	0x3e303926	0.172093
199	0x3c08d7ab	0.0083522005
200	0x3dae0e79	0.08498854
201	0xbd9c2aeb	-0.076253735
202	0xbe0a3e12	-0.1350024
203	0x3cf39264	0.02973289
204	0xbe1f2002	-0.15539554
205	0xbd61d088	-0.05513051
206	0x3e277bae	0.16355774
207	0x3d73a4d0	0.05948335
208	0x3ea5e1b1	0.3239875
209	0xbdeaf427	-0.114723496
210	0x3df05837	0.11735576
211	0x3e2ed544	0.17073542
212	0x3e1d3c9e	0.15355155
213	0x3cfc6160	0.03080815
214	0x3e5e5132	0.21710661
215	0x3d4b8234	0.04968472
216	0x3caa7cb8	0.020811424
217	0x3cb8dc21	0.022565903
218	0xbe1ce64e	-0.1532223
219	0x3dfa6564	0.1222637
220	0x3e3367d6	0.17520079
221	0xbde0a98d	-0.10969839
222	0x3dddfb31	0.108389266
223	0xbe4eb25e	-0.20185229
224	0x3e618e42	0.22026923
225	0x3df92c54	0.12166658
226	0x3e445265	0.19172056
227	0xbe10d036	-0.14141926
228	0xbcba41a0	-0.02273637
229	0xbe83c59d	-0.25736704
230	0x3d223f08	0.039610893
231	0x3da83acc	0.082143396
232	0xbe24698a	-0.16055885
233	0xbc8c8862	-0.017154876
234	0x3dc73eed	0.09728799
235	0xbe28b59a	-0.16475525
236	0xbda5d6a9	-0.08097584
237	0x3dc99900	0.098436356
238	0xbc501ded	-0.012702447
239	0x3d247d94	0.040158823

bias f4 [8]
0	0x3e1e26c8	0.15444481
1	0x3da0ef3c	0.0785813
2	0xbe23b5a7	-0.15987264
3	0xbd588718	-0.05286321
4	0xbd1d5f68	-0.038421065
5	0xbddc6ffb	-0.10763546
6	0x3db95178	0.09048742
7	0xbe08b208	-0.13349164
